bot/model.pt (torch_old, 146462 bytes, 75 tensors)

tower.conv1d_op1.weight f4 [16, 3, 1]
0	0xbe09c6eb	-0.13454787
1	0x3e71ac16	0.23600802
2	0xbf4c39e9	-0.79775864
3	0xbe1cb373	-0.1530283
4	0x3d9b230d	0.07575045
5	0x3fac9c8f	1.3485278
6	0xbef95fe2	-0.48705965
7	0xbeb5a2b5	-0.35475698
8	0x3f4698ba	0.7757679
9	0x3cb7af3a	0.022422422
10	0xbe67070a	-0.22561279
11	0xbf175b86	-0.5912403
12	0xbcc16ead	-0.023612345
13	0xbe9144a8	-0.28372693
14	0x3f59c9e1	0.8507367
15	0x3e81a73e	0.25322908
16	0xbeaa4f28	-0.33263516
17	0xbd8dda09	-0.069263525
18	0xbea87b40	-0.32906532
19	0x3f0194a8	0.50617456
20	0x3ecd05ff	0.40043637
21	0xbed33271	-0.4124942
22	0xbd1354d7	-0.03596958
23	0x3ee0a69c	0.43877113
24	0xbe51a1b8	-0.20471847
25	0x3d1d4561	0.038396243
26	0xbf6237f1	-0.8836661
27	0xbeadbdc7	-0.3393385
28	0x3eea5cb8	0.45773864
29	0xbe1e4e99	-0.1545967
30	0xbf6de4e6	-0.92927396
31	0xbd83ece8	-0.06441671
32	0xbf5972cc	-0.8494079
33	0xbf021cab	-0.50824994
34	0x3ec4d2a8	0.38441968
35	0x3f11e89e	0.5699557
36	0x3edb117a	0.4278677
37	0x3de95a75	0.113942064
38	0xbe123dc0	-0.14281368
39	0x3defb9df	0.11705374
40	0xbfbe52f4	-1.4869065
41	0x3dbd497a	0.0924253
42	0x3e55bd5a	0.20873013
43	0xbd635f5a	-0.055510856
44	0xbf3db0c2	-0.74097836
45	0x3ed5699f	0.41682145
46	0x3f1c861c	0.61142135
47	0xbe90cdd0	-0.28282022

tower.conv1d_op1.bias f4 [16]
0	0xbe89016a	-0.2675889
1	0x3f0bc51e	0.5459765
2	0xbcc7a84a	-0.024372239
3	0xbf0b1dc8	-0.5434232
4	0x3f159e71	0.5844489
5	0xbee572d0	-0.44814157
6	0x3e37783b	0.17916958
7	0x3e74cfc2	0.23907378
8	0x3eaba4fd	0.33524314
9	0xbd84a5dd	-0.064769484
10	0xbcdc0f7d	-0.026862854
11	0x3eba9fb6	0.36449975
12	0xbe9447e8	-0.2896111
13	0xbdbaee9d	-0.09127543
14	0xbf13632f	-0.5757322
15	0x3ec73600	0.38908386

tower.bn_op1.weight f4 [16]
0	0x3eb1f3fa	0.34756452
1	0x3f31cba9	0.69451386
2	0x3eac73c2	0.33682066
3	0x3e938ff5	0.28820768
4	0x3ef50518	0.4785545
5	0x3e1185f8	0.14211261
6	0x3d763b02	0.060114868
7	0x3f2f552e	0.6848935
8	0x3f66bc6d	0.90131265
9	0x3d99b57a	0.07505317
10	0x3ee21c60	0.44162273
11	0x3e72a42d	0.2369544
12	0x3f04ca18	0.5187087
13	0x3d8aa152	0.06769051
14	0x3f484276	0.7822641
15	0x3c53e00e	0.012931837

tower.bn_op1.bias f4 [16]
0	0xbdb97dbd	-0.09057186
1	0x3e99033d	0.29885283
2	0x3dd4d890	0.103928685
3	0xbe7ac87c	-0.24490541
4	0x3da875e9	0.082256146
5	0x3d2f133c	0.042742953
6	0xbde153cf	-0.11002313
7	0x3d26362a	0.040579
8	0x3da63f63	0.08117559
9	0xbd5eb9a1	-0.05437625
10	0xbb14290d	-0.0022607476
11	0x3e5a744c	0.21333426
12	0xbdf2dedc	-0.11858913
13	0xbdc171b5	-0.09445516
14	0xbd4150fe	-0.04719638
15	0x3d3a748d	0.045521308

tower.bn_op1.running_mean f4 [16]
0	0x398757da	0.0002581466
1	0x4041f382	3.0304875
2	0x3e9e1013	0.3087164
3	0x00000004	6e-45
4	0x40294542	2.6448522
5	0x3d2d8929	0.042367134
6	0x3f4d8383	0.80278796
7	0x3f366d63	0.7126066
8	0x3efb2ea9	0.49059036
9	0x3c220aa8	0.009890236
10	0x00000004	6e-45
11	0x3f9f04fd	1.2423397
12	0x3e34f1da	0.17670384
13	0x3f0f61aa	0.560084
14	0x00000004	6e-45
15	0x3fc8fc41	1.5701982

tower.bn_op1.running_var f4 [16]
0	0x386f3ee4	5.7040612e-05
1	0x3fb6b49e	1.427387
2	0x3e5aa3d7	0.21351562
3	0x00000004	6e-45
4	0x3f1c3d2d	0.61030847
5	0x3c5bf6af	0.013425513
6	0x3e538b0c	0.20658511
7	0x3dc4562d	0.09586749
8	0x3dbd53f6	0.0924453
9	0x3afa759f	0.001910854
10	0x00000004	6e-45
11	0x3e50b28b	0.20380609
12	0x3db32ee5	0.08749179
13	0x3f2725e7	0.6529221
14	0x00000004	6e-45
15	0x3f355778	0.7083659

tower.dense_p1.weight f4 [16, 12]
0	0xbe3bc1c5	-0.18335636
1	0xbe270377	-0.16309915
2	0xbd94ffdf	-0.07275366
3	0xbdbe3497	-0.092873745
4	0xbda0cae0	-0.07851195
5	0xbe2d4086	-0.16919145
6	0xbdb203a6	-0.08692102
7	0x3d983705	0.07432369
8	0xbe859766	-0.2609207
9	0xbe64bf44	-0.22338587
10	0xbe06ed63	-0.13176493
11	0xbe3343fb	-0.17506401
12	0xbf658e7c	-0.8967054
13	0x3e85ce16	0.26133794
14	0x3ba9d920	0.005183354
15	0x3eb253b4	0.34829485
16	0x3e16dd6f	0.14732908
17	0xbf1ec889	-0.6202474
18	0x3f81eeec	1.0151038
19	0x3f4973f5	0.7869256
20	0x3f9a93ab	1.2076315
21	0x3f232cf8	0.6374049
22	0x3f406150	0.7514849
23	0x3e79ae52	0.24382904
24	0xbedf3806	-0.4359743
25	0xbecbff1f	-0.3984308
26	0x3e1d0c73	0.1533678
27	0x3e3f25a9	0.1866671
28	0x3f9105ba	1.1329873
29	0x3eda2547	0.42606565
30	0x3f01a670	0.5064459
31	0x3ebab5c3	0.36466798
32	0x3ee66ef7	0.45006534
33	0x3e572e2d	0.21013708
34	0xbcc402f2	-0.023927186
35	0xbd14fcf3	-0.036374044
36	0x3ee51636	0.44743508
37	0x3e44fc73	0.19236927
38	0xbeb7fe2a	-0.359361
39	0xbec4176c	-0.3829912
40	0xbe24bf2e	-0.16088554
41	0x3ed5a944	0.41730702
42	0x3bc18421	0.0059056436
43	0xbe929c6f	-0.28634974
44	0x3d2c3674	0.042044118
45	0x3ed91e02	0.42405707
46	0x3e59093f	0.21194933
47	0xbcc29d79	-0.02375673
48	0x3eda784b	0.426699
49	0xbe8fb9c5	-0.28071418
50	0xbf339f82	-0.70165265
51	0xbd4e30a3	-0.050339352
52	0x3e13fc7d	0.14451785
53	0xbe65d3a2	-0.22444013
54	0x3e825945	0.25458732
55	0x3ea424d2	0.32059342
56	0x3eb494be	0.3526973
57	0x3ea05678	0.3131597
58	0xbe9f6569	-0.31132057
59	0xbd06c6b3	-0.032904338
60	0x3d564065	0.052307505
61	0xbeb049bb	-0.34431252
62	0xbf35476b	-0.708121
63	0xbd6e7d5c	-0.05822502
64	0x3da97e7f	0.0827608
65	0xbecbefb5	-0.3983132
66	0xbd0e7629	-0.034780655
67	0x3e15b0b9	0.14618196
68	0x3f0ff9bd	0.56240445
69	0x3f407aeb	0.7518756
70	0x3eed442b	0.4634107
71	0x3dfb7b7c	0.12279412
72	0xbeba2808	-0.36358666
73	0x3d93c147	0.07214599
74	0xbf8bc78d	-1.0920273
75	0xbe0e0b0b	-0.138714
76	0xbe963936	-0.29340523
77	0x3d9ffded	0.078121044
78	0xbdbe97d7	-0.09306305
79	0xbde95001	-0.11392213
80	0xbc8764f5	-0.016527632
81	0xbdcaa1c5	-0.09894136
82	0x3d780d5b	0.06055961
83	0xbe3b3800	-0.18283081
84	0xbfa9d6da	-1.3268692
85	0xbdfbcb60	-0.1229465
86	0x3dfba05f	0.12286448
87	0x3d688523	0.056767594
88	0x3e149fc1	0.14514066
89	0xbe0fb173	-0.14032535
90	0x3f978832	1.1838439
91	0x3f9864c8	1.1905756
92	0x3f97d306	1.1861274
93	0x3f9b1b24	1.2117658
94	0x3f9dda3f	1.2332228
95	0xbc8f610f	-0.017502336
96	0x3e3c2333	0.18372802
97	0xbf38cdab	-0.72188824
98	0x3ea8954e	0.3292641
99	0xbed113ca	-0.4083541
100	0x3d460060	0.0483402
101	0xbecb8806	-0.39752215
102	0x3e8e8b6a	0.2784074
103	0x3ea9af89	0.33141735
104	0x3ec5e494	0.38650954
105	0x3ee8f364	0.45498192
106	0x3f45bc2e	0.77240264
107	0xb9d653ef	-0.00040879796
108	0xbe9ec65b	-0.31010708
109	0x3f4b25ac	0.7935436
110	0x38f8c5fc	0.00011862439
111	0xbf213ce3	-0.6298353
112	0xbf45c827	-0.77258533
113	0x3f074ff1	0.52856356
114	0x3ea28472	0.31741673
115	0x3e4edbb7	0.20201002
116	0x3ea4e0fb	0.32202896
117	0x3dea4920	0.11439729
118	0x3dbe2660	0.09284663
119	0x3de63a0d	0.11241541
120	0x3e066010	0.13122582
121	0x3ef6b3af	0.48183963
122	0x3f15445d	0.5830744
123	0x3c9f8ec0	0.019477248
124	0xbe1527fe	-0.14566037
125	0xbec06f98	-0.3758514
126	0xbe083b7e	-0.13303944
127	0xbe521fc1	-0.20519926
128	0xbe819b72	-0.25313908
129	0xbe64c54e	-0.22340891
130	0xbea3b5f8	-0.3197477
131	0xbe1c0510	-0.15236306
132	0x3e9b817e	0.30372232
133	0x3f09b665	0.53793937
134	0x3f389056	0.7209524
135	0x3d7398b4	0.0594718
136	0xbf05acf7	-0.5221705
137	0x3dd6e6e2	0.10493256
138	0xbd9425ae	-0.07233749
139	0xbd85ede3	-0.06539514
140	0xbe54dfe1	-0.20788528
141	0xbe8a7b78	-0.27047324
142	0xbf3d424c	-0.73929286
143	0x3dfc6b1d	0.12325118
144	0x3ca8d749	0.020610468
145	0x3f20a139	0.62746006
146	0x3dd085fe	0.10181807
147	0x3f308513	0.68953055
148	0x3ed384cc	0.41312253
149	0xbcaec78f	-0.021335391
150	0x3dafdc9b	0.08586999
151	0x3db127d3	0.08650174
152	0x3db62e37	0.088955335
153	0x3dacce1a	0.08437748
154	0x3da98293	0.08276858
155	0xbc8833f1	-0.01662633
156	0xbe55da45	-0.20884044
157	0x3f12362b	0.57113904
158	0x3f4990d5	0.7873662
159	0x3dc25478	0.094887674
160	0x3e6160d8	0.22009599
161	0xbe339aa6	-0.17539462
162	0xbe51d1c8	-0.20490181
163	0xbe090bc6	-0.13383397
164	0x3e3576e6	0.17721137
165	0x3e5b1123	0.21393256
166	0x3e41bff6	0.18920884
167	0x3e95e9e2	0.2928
168	0x3c64035e	0.013916818
169	0xbf38c111	-0.72169596
170	0xbebc1f11	-0.36742452
171	0xbdfd4e53	-0.12368455
172	0xbe546564	-0.20741802
173	0xbd626b09	-0.055277858
174	0xbd14d9fc	-0.0363407
175	0xbca06b47	-0.019582404
176	0xbc400603	-0.011720183
177	0xbc8013c4	-0.015634425
178	0x3f8d4c70	1.1038952
179	0xbc88d164	-0.016701408
180	0xbed1b342	-0.40957075
181	0x3e24e771	0.16103913
182	0x3f4a8dbc	0.7912252
183	0x3d0e8340	0.03479314
184	0xbdc973ec	-0.098365635
185	0x3e22bb30	0.15891719
186	0xbba9bffc	-0.005180357
187	0xbb2b4d4d	-0.0026138604
188	0x3d17ad9a	0.037030794
189	0x3cb752d9	0.022378372
190	0x3d5d1799	0.053977583
191	0xbeda8552	-0.4267984

tower.dense_p1.bias f4 [16]
0	0xbe3ffa41	-0.18747808
1	0x3db7ce5a	0.08974905
2	0x3dbf8af8	0.09352678
3	0xbe926e67	-0.28599855
4	0x3e7706ca	0.24123684
5	0x3f053977	0.5204081
6	0x3f70f99e	0.94130886
7	0xbebb1035	-0.36535802
8	0x3d58cb23	0.0529281
9	0xbe738fa6	-0.23785266
10	0xbedd3092	-0.4320112
11	0xbe315506	-0.1731759
12	0xbf381a90	-0.7191553
13	0x3e056a79	0.13028897
14	0x3debc441	0.11512042
15	0x3e4265b5	0.1898411

tower.bn_p1.weight f4 [16]
0	0x3e41279b	0.18862765
1	0x3e9f64b4	0.31131518
2	0x3f779241	0.9670754
3	0x3e0f7d37	0.1401261
4	0x3f3f802b	0.74804944
5	0x3f1898f8	0.5960841
6	0x3fbbb907	1.4665841
7	0x3fe33fe0	1.7753868
8	0x3f0db6ac	0.5535686
9	0x3f335702	0.7005464
10	0x3efdea4a	0.4959281
11	0x3f0f77da	0.56042254
12	0x3fbc663d	1.4718701
13	0x3f0ba5dd	0.5454996
14	0x3f830432	1.0235655
15	0x3f866f7e	1.0502775

tower.bn_p1.bias f4 [16]
0	0x3bd2a28d	0.006428069
1	0x3d9f8509	0.07789046
2	0x3dd8a39f	0.10578083
3	0xbe191f68	-0.14953387
4	0xbd045e79	-0.03231666
5	0xbda41a70	-0.08012855
6	0xbd9658e3	-0.073411725
7	0x3e8df2f0	0.2772441
8	0xbed1153e	-0.4083652
9	0xbe75b8ea	-0.2399632
10	0xbd8fd54b	-0.07023104
11	0x3da65998	0.081225574
12	0x3e5fc6b1	0.21853139
13	0xbd2bb8b0	-0.04192418
14	0x3cf693a3	0.030099696
15	0x3e8d45e8	0.27592397

tower.bn_p1.running_mean f4 [16]
0	0x00000004	6e-45
1	0x3ed42830	0.4143691
2	0x3f6fff88	0.93749285
3	0x3e16de78	0.14733303
4	0x3e794019	0.24340858
5	0x3e749186	0.23883638
6	0x3e7632e9	0.24042858
7	0x3e4054ae	0.18782303
8	0x3ec1e673	0.3787113
9	0x3eb900f1	0.3613353
10	0x3cb35a63	0.021893686
11	0x3ec33aa3	0.38130674
12	0x3e22afad	0.15887327
13	0x3f486cb0	0.78290844
14	0x3e0cb374	0.13740331
15	0x3ec46dbe	0.38364977

tower.bn_p1.running_var f4 [16]
0	0x00000004	6e-45
1	0x3e719e20	0.23595476
2	0x3f119547	0.56868404
3	0x3cfc67a5	0.03081114
4	0x3da4bdfa	0.08044048
5	0x3da5fb7b	0.08104607
6	0x3e0e1135	0.13873751
7	0x3d56733a	0.052355982
8	0x3e0d9d6c	0.13829583
9	0x3e049f25	0.12951334
10	0x3bc31682	0.005953611
11	0x3ddb955e	0.10721849
12	0x3d2ff994	0.042962626
13	0x3e138899	0.14407577
14	0x3d999614	0.07499328
15	0x3de6d033	0.112701796

tower.conv2d_1a.weight f4 [16, 7, 1, 1]
0	0x3f450645	0.7696269
1	0xbf298ccc	-0.66230464
2	0x3f9d7f1d	1.2304417
3	0xbf2f91f9	-0.6858211
4	0x3e1aca53	0.15116243
5	0x3e29be02	0.16576388
6	0xbc940072	-0.018066619
7	0x3f22929a	0.63504946
8	0xbc9d8bc4	-0.019231685
9	0x3d89a223	0.06720378
10	0xbe0cd775	-0.13754065
11	0xbeeb5f53	-0.45971164
12	0x3d8cd964	0.068774015
13	0x3cd4ce7c	0.025977366
14	0xbd6ed7cb	-0.058311265
15	0x3ebb6ded	0.36607304
16	0xbeff7b09	-0.49898556
17	0xbfcb2b4d	-1.5872589
18	0xbf5d43f2	-0.864318
19	0xbf086aea	-0.5328814
20	0xbc2e13d7	-0.010624847
21	0x3b0f04f2	0.0021823016
22	0x3d8a6834	0.067581564
23	0xc1003f84	-8.015507
24	0x3d26d4c5	0.040730257
25	0x3d315f30	0.04330367
26	0x40d7ccee	6.743766
27	0xbbd5bff6	-0.0065231277
28	0xbff42dc4	-1.9076467
29	0xbeef2785	-0.46709839
30	0xbff86ce5	-1.9408232
31	0xbfe5773d	-1.7927014
32	0xc030e613	-2.7640426
33	0x3f677080	0.90406036
34	0x3cf25c06	0.029584896
35	0x3fac1ba8	1.344594
36	0xbf222184	-0.6333239
37	0x3f45b7ea	0.77233756
38	0x3f98e2cd	1.1944214
39	0x3dbc921c	0.09207556
40	0xbd9e9b01	-0.077444084
41	0xbd263280	-0.040575504
42	0xc093311f	-4.599746
43	0x3c6e0513	0.014527577
44	0xbcf0c13f	-0.029389022
45	0xbec800a4	-0.3906299
46	0xbd7ba514	-0.061436728
47	0xbcbbe023	-0.022934025
48	0xb9a25421	-0.0003096173
49	0xc02e1d86	-2.720552
50	0x3e0432f7	0.12910067
51	0xbdcf7297	-0.10129278
52	0xbeb6b002	-0.35681158
53	0xbee711c2	-0.45130736
54	0xbed7c02d	-0.42138806
55	0xbc2d03b9	-0.01055997
56	0x3f29a0bb	0.6626088
57	0x3f23de4a	0.6401106
58	0xbb00b744	-0.0019640485
59	0xbf85ca61	-1.0452386
60	0xbd986ac1	-0.07442237
61	0xc0c5c82f	-6.1806865
62	0x3b5280ce	0.003212023
63	0xc04c0880	-3.1880188
64	0xbd85c6af	-0.065320365
65	0x3d8df029	0.069305725
66	0xbf0bb80a	-0.54577696
67	0xbea912a5	-0.33022037
68	0x3e54c63d	0.20778747
69	0x3bb0e5ea	0.0053985016
70	0x3de13266	0.10995941
71	0x3da388e2	0.07985093
72	0x3f1d6dc6	0.61495626
73	0xbf320ea5	-0.69553596
74	0xbe053b24	-0.13010842
75	0xbcb2ffcb	-0.021850487
76	0xbb94dc1e	-0.0045428416
77	0x3f1f3561	0.62190825
78	0x3d344f98	0.04402122
79	0x3d3875f6	0.04503437
80	0xbfea575a	-1.8307908
81	0xbf9345a8	-1.1505632
82	0x3d1d9a1e	0.038477056
83	0xbb70f294	-0.0036765682
84	0xbd9f1d7c	-0.077692956
85	0xbf8468f1	-1.0344526
86	0xbf7a7939	-0.9784122
87	0xbe4ac5fd	-0.19802089
88	0xbda77851	-0.081772454
89	0x3f7317fa	0.9495846
90	0x3d41feb1	0.047362033
91	0xbf32e91e	-0.6988696
92	0x3ea706dd	0.32622424
93	0xbfc800c6	-1.5625236
94	0xbb8476e9	-0.0040424955
95	0xbab42ef9	-0.0013746909
96	0xbf1e6c51	-0.6188403
97	0xbba3f40b	-0.0050034574
98	0x3eec2d5b	0.46128353
99	0xbdb578f7	-0.08860963
100	0xbec54353	-0.38527927
101	0xbf2d30a9	-0.67652375
102	0x3f910482	1.1329501
103	0xbe46b722	-0.19405797
104	0xbc2f6b56	-0.010706743
105	0xbf4b4973	-0.7940895
106	0xbd654200	-0.055971146
107	0x3f0cd76d	0.55016214
108	0x3e4f84f1	0.20265557
109	0x3f980e97	1.1879452
110	0x3d0f2262	0.0349449
111	0xba58ec16	-0.00082749256

tower.conv2d_1a.bias f4 [16]
0	0xbf035237	-0.51297325
1	0xbe907f38	-0.2822206
2	0x3e2a5609	0.16634382
3	0x3c1a8b89	0.009432682
4	0xbfa338a2	-1.2751658
5	0xb9a82b3d	-0.00032075672
6	0x3d46fa3c	0.048578486
7	0x3ee664ff	0.4499893
8	0xbf0673e6	-0.52520597
9	0x3e04a626	0.12954006
10	0xbf0e0d6a	-0.5548922
11	0x3f924038	1.1425848
12	0x3d43b274	0.047777608
13	0xbe804604	-0.25053418
14	0xbd987075	-0.074433245
15	0x3f0deb0f	0.55436796

tower.bn_1a.weight f4 [16]
0	0x3f089208	0.53347826
1	0x3e88aa14	0.2669226
2	0x3ec552bf	0.38539693
3	0x3f187de5	0.595671
4	0x3dbc1c03	0.0918503
5	0x3f5df5b6	0.8670305
6	0x3f45ed97	0.7731566
7	0x3f473fa6	0.77831495
8	0x3ea01380	0.31264877
9	0x3f06fd23	0.52730006
10	0x3e53d0ac	0.20685071
11	0x3f903bc1	1.1268235
12	0x3f905c9f	1.1278266
13	0x3eda9772	0.4269367
14	0x3edec7a1	0.4351168
15	0x3f11b2d6	0.56913507

tower.bn_1a.bias f4 [16]
0	0x3c21e15f	0.009880393
1	0xbec6ec78	-0.38852286
2	0x3ec13d3d	0.37742034
3	0x3f42f99e	0.76162136
4	0x3fa0fb90	1.2576771
5	0x3ec4a1bd	0.38404647
6	0xbee44ecd	-0.4459137
7	0xbee3c906	-0.44489306
8	0x3e8dbdea	0.27683955
9	0xbf10692e	-0.5641049
10	0xbcef5b95	-0.029218474
11	0xbe4e3580	-0.20137596
12	0x3b6d7def	0.0036238392
13	0xbe5cf39f	-0.21577309
14	0x3ed1b1be	0.4095592
15	0x3bdb9d3b	0.006702093

tower.bn_1a.running_mean f4 [16]
0	0x3c9819e1	0.018567028
1	0x3abf08c7	0.0014574759
2	0x3e246bda	0.16056767
3	0x3c18efe6	0.00933454
4	0x3b1a3aa6	0.0023533492
5	0x3e15e7ca	0.14639202
6	0x3b087f18	0.0020827707
7	0x3e814a6c	0.25252092
8	0x3b359fcf	0.0027713662
9	0x3ce2e070	0.02769491
10	0x39b712f0	0.0003491859
11	0x3f99a955	1.2004801
12	0x3d78c5a0	0.060735345
13	0x38dadd12	0.000104362276
14	0x3c2a87d3	0.01040836
15	0x3efc2bda	0.49252206

tower.bn_1a.running_var f4 [16]
0	0x3c85cdbf	0.016333459
1	0x398a740e	0.0002640788
2	0x3b8a85ca	0.0042273747
3	0x37398948	1.1058823e-05
4	0x3b556546	0.0032561584
5	0x3d2d9812	0.042381354
6	0x39747501	0.0002331324
7	0x3cb796bf	0.022410749
8	0x3a1e98cf	0.0006049992
9	0x3b12535f	0.0022327525
10	0x3812ebfb	3.5028886e-05
11	0x3c220697	0.009889266
12	0x3c8ebf6b	0.01742526
13	0x36add797	5.1808997e-06
14	0x3b03d4f9	0.0020115955
15	0x3c3d9415	0.01157095

tower.conv2d_1d.weight f4 [16, 16, 3, 3]
0	0x3eaf2815	0.34210268
1	0xbca50987	-0.020146145
2	0x3d6ca7fd	0.057777394
3	0xbeaba1b5	-0.3352181
4	0xbe62034d	-0.22071572
5	0x3e2a390a	0.16623321
6	0xbe38b532	-0.1803787
7	0xbdeaf631	-0.114727385
8	0xbe81349c	-0.2523545
9	0x3ea605c1	0.32426265
10	0x3d4d97f2	0.050193734
11	0xbdf184c8	-0.11792904
12	0xbf12eaad	-0.57389337
13	0xbdf5ec14	-0.12007919
14	0x3e8952c8	0.2682097
15	0x3e5a57d0	0.2132256
16	0x3f0f6be9	0.5602403
17	0xbf1805e8	-0.5938401
18	0x3da161a2	0.0787995
19	0xbd8d2df8	-0.068935335
20	0xbdfcfd8c	-0.12353048
21	0xbf3fef9b	-0.74974984
22	0xbdf1f13f	-0.11813592
23	0x3da10968	0.07863122
24	0xbeb28c38	-0.34872603
25	0xbe6a04f6	-0.22853455
26	0xbe8ec84e	-0.27887195
27	0x3d6fdcdb	0.058560234
28	0x3e8df513	0.2772604
29	0xbe9adb62	-0.302455
30	0xbdda65db	-0.10663959
31	0x3e42cbc8	0.19023049
32	0xbe9e7324	-0.3094722
33	0xbdfd6f00	-0.12374687
34	0x3e16771b	0.14693873
35	0x3f1363b4	0.5757401
36	0xbe8b5713	-0.2721487
37	0x3c9724d7	0.018450184
38	0xbd210ddd	-0.03931986
39	0x3dd8943b	0.10575148
40	0x3e7c6e74	0.2465151
41	0x3e549185	0.20758636
42	0x38f4c3be	0.000116712865
43	0x3de6a90f	0.11262714
44	0x3e7bf865	0.24606474
45	0xbecf2469	-0.40457466
46	0xbd0c3f4d	-0.034240056
47	0x3d50f085	0.051010627
48	0x3f09aa81	0.53775793
49	0x3e87944a	0.26480323
50	0xbec77ef3	-0.38964042
51	0x3d685769	0.056723986
52	0xbe9e04d7	-0.30863068
53	0x3e5aad97	0.21355282
54	0x3dbebbf7	0.09313195
55	0xbe626f0e	-0.22112677
56	0x3d540a28	0.0517675
57	0xbe147c17	-0.14500462
58	0xbdad11c9	-0.08450658
59	0x3f0639c1	0.52431875
60	0x3e826d72	0.25474125
61	0x3edfc0a9	0.43701676
62	0xbebaa8d0	-0.3645692
63	0xbe2e98f9	-0.17050542
64	0xbe9a9adb	-0.3019627
65	0xbe93f4d0	-0.28897715
66	0xbed3d105	-0.41370407
67	0xbea3926c	-0.3194765
68	0x3f090bc9	0.5353361
69	0x3e3a4e0b	0.18193834
70	0x3ee4bf54	0.44677222
71	0xbee4d34f	-0.44692466
72	0x3e89ce54	0.26915228
73	0x3e4ddd61	0.2010398
74	0xbe4a1abc	-0.19736761
75	0xbe3f3ffa	-0.18676749
76	0x3ea48027	0.32129022
77	0x3dc64ac9	0.09682233
78	0xbd55ef8f	-0.052230414
79	0x3ecf3695	0.4047133
80	0x3e8ce3af	0.2751746
81	0x3e3ef7ad	0.18649168
82	0xbe3cd142	-0.184392
83	0xbe911482	-0.2833596
84	0xbf38baaa	-0.72159827
85	0xbe521613	-0.20516233
86	0x3f09321b	0.5359208
87	0x3e1bd2db	0.15217154
88	0x3f10a828	0.56506586
89	0xbec62468	-0.3869965
90	0xbe98b1c0	-0.29823112
91	0x3dd6ae32	0.10482444
92	0x3ed3c6af	0.4136252
93	0x3f681c11	0.90667826
94	0x3e0b223e	0.13587281
95	0xbe4ba681	-0.19887735
96	0x3eb87e65	0.3603393
97	0xbe664212	-0.22486141
98	0x3e856e5f	0.2606077
99	0xbe3857e0	-0.18002272
100	0x3de5dc03	0.112236045
101	0xbc4dcdf2	-0.012561308
102	0x3eac8a15	0.33699098
103	0x3d869b48	0.06572586
104	0xbf27cf23	-0.6555044
105	0xbe23d83d	-0.16000457
106	0xbed15560	-0.40885448
107	0x3f050a01	0.5196839
108	0x3d45ace0	0.04826057
109	0x3d22e7b1	0.03977174
110	0xbd8ae896	-0.067826435
111	0xbe94922c	-0.2901777
112	0xbdcc3d33	-0.0997261
113	0xbc08b437	-0.008343748
114	0xbdfcbe12	-0.123409405
115	0x3dc18da0	0.09450841
116	0x3dfadfde	0.122497305
117	0x3d843e75	0.06457225
118	0xbe4bffc1	-0.19921781
119	0x3ec04cb6	0.37558526
120	0x3d9d19de	0.076709494
121	0xbdd7b323	-0.105322145
122	0x3f08e336	0.53471696
123	0x3dfb1ad1	0.12260974
124	0xbe480954	-0.19534808
125	0xbf35e537	-0.7105288
126	0xbdbc1494	-0.091836125
127	0x3dab40d1	0.08361972
128	0x3ecbacf8	0.39780402
129	0x3f230c6c	0.6369083
130	0x3ec3daab	0.38252768
131	0xbd52c026	-0.05145278
132	0x3d0abf4c	0.03387384
133	0xbf0170d5	-0.50562793
134	0x3e195cd8	0.14976823
135	0xbd12ba9b	-0.035822492
136	0x3d4049cc	0.04694538
137	0xbedd00cc	-0.4316467
138	0xbf0865a9	-0.5328012
139	0xbe9690f8	-0.29407477
140	0xbc93d3fe	-0.018045422
141	0x3d5ba870	0.05362743
142	0x3f04ad01	0.51826483
143	0xbbc7a57a	-0.0060927244
144	0x3d067a8b	0.03283171
145	0xbcf3e8df	-0.029774128
146	0x3ea0ce3e	0.3140735
147	0x3e7e9e9c	0.24865192
148	0xbec6750b	-0.38761172
149	0x3f555fde	0.83349407
150	0x3e9e4d9a	0.3091858
151	0xbecd6ffc	-0.401245
152	0xbbe1527b	-0.0068762875
153	0x3e3876cf	0.18014072
154	0x3e71ee3c	0.23626035
155	0x3d7dd054	0.061966255
156	0x3eac58fc	0.3366164
157	0x3e945669	0.28972176
158	0x3f081899	0.53162533
159	0x3e05a6e5	0.13051946
160	0xbe7e270c	-0.24819583
161	0xbea9a21a	-0.33131486
162	0x3e2c9f8a	0.16857734
163	0x3e2c16c3	0.16805558
164	0x3e790def	0.24321721
165	0x3ed6e261	0.41969588
166	0x3e4531f3	0.19257335
167	0x3f7fdbff	0.9994506
168	0x3e58ffde	0.21191356
169	0xbe82a1b7	-0.25514004
170	0xbe455970	-0.19272399
171	0x3d33a5ed	0.04385941
172	0xbeb56197	-0.35426018
173	0xbd0f4f58	-0.034987777
174	0x3e37b033	0.17938308
175	0xbe676edb	-0.22600882
176	0x3dcb7297	0.09933966
177	0x3e1e9ed4	0.15490276
178	0xbe8dcf91	-0.27697423
179	0x3dc0865d	0.09400628
180	0xbee6c551	-0.45072415
181	0xbdae2445	-0.085030116
182	0xbe0b3bce	-0.13597032
183	0x3e581809	0.21102919
184	0x40358bc8	2.8366566
185	0x3f285dfd	0.65768415
186	0xbd52df93	-0.05148275
187	0x3fcd686a	1.604749
188	0x3f9ed99c	1.2410159
189	0xbe4bcd49	-0.19902529
190	0xbe290edc	-0.16509575
191	0xbe9e1640	-0.3087635
192	0xbeefa79a	-0.46807557
193	0x3e3b0c69	0.18266453
194	0xbf5b71e9	-0.8572069
195	0xbe9deb16	-0.3084342
196	0x3efdd19c	0.49573982
197	0x3e01722f	0.12641214
198	0x3d3da982	0.046304233
199	0x3e9702bf	0.29494283
200	0xb7706ab8	-1.4329962e-05
201	0xbd992afb	-0.07478901
202	0x3d34c170	0.04412979
203	0x3d6bbf93	0.057555746
204	0xbe0d3a88	-0.13791859
205	0x3bb72777	0.0055894214
206	0xbd50d638	-0.050985545
207	0xbd8567fc	-0.06513974
208	0x3e837d41	0.256815
209	0xbea0eb93	-0.3142973
210	0xbe11400d	-0.1418459
211	0x3d1eb699	0.038748357
212	0xbe8c2287	-0.27370092
213	0xbe628aa9	-0.22123207
214	0x3dce1446	0.100624606
215	0xbe811931	-0.25214532
216	0x3c1da00a	0.009620676
217	0xbe8dfb48	-0.27730775
218	0x3d4f87d4	0.050666645
219	0x3e7b7cff	0.24559401
220	0xbea8e60f	-0.3298802
221	0x3f0f5191	0.55983835
222	0x3e80f1ca	0.2518447
223	0xbf101746	-0.5628551
224	0x3e34de32	0.17662886
225	0x3d6c385a	0.05767093
226	0x3db5839f	0.08862995
227	0xbd69ebce	-0.057109646
228	0x3e71a4b6	0.23597988
229	0x3dca4eae	0.09878288
230	0x3ed3331d	0.41249934
231	0x3d85b5af	0.06528794
232	0xbe6d1f70	-0.23156524
233	0xbe7f314a	-0.24921146
234	0x3e17eeea	0.14837232
235	0x3e99b01b	0.3001717
236	0x3ec4171f	0.3829889
237	0xbcc45f5d	-0.023971254
238	0x3f20b52c	0.62776446
239	0xbee050f5	-0.43811765
240	0xbe126e68	-0.14299929
241	0x3f084db7	0.53243583
242	0x3ebd48cf	0.3696961
243	0xbdd92b4e	-0.10603963
244	0xbef6b8c6	-0.48187846
245	0xbda6323c	-0.0811505
246	0xbe96075b	-0.29302487
247	0xbf391e5f	-0.7231197
248	0xbf0cfdbe	-0.5507468
249	0xbc6838d1	-0.014173702
250	0xbd988075	-0.07446376
251	0x3d864128	0.06555396
252	0xbc01ab82	-0.007914426
253	0xbef0bec2	-0.47020537
254	0x3e30572d	0.17220755
255	0x3e153d30	0.14574122

tower.conv2d_1d.bias f4 [16]
0	0x3e9c4009	0.30517605
1	0x400d1f22	2.2050252
2	0x3f45abee	0.7721547
3	0x3e1f4dfe	0.15557095
4	0x40097d9e	2.148292
5	0x3e4056f2	0.18783167
6	0x3f40c7fa	0.7530514
7	0x3f044cf9	0.5167995
8	0x3f8bcc9e	1.0921819
9	0x3f9061ae	1.127981
10	0x3e169e20	0.14708757
11	0x3fe797fe	1.8093259
12	0x3e078dd9	0.13237704
13	0x3ed29a3a	0.4113329
14	0x3ea1ea93	0.31624278
15	0x3f69989f	0.91248506

tower.bn_1d.weight f4 [16]
0	0x3f80fed0	1.0077763
1	0x3f6fd786	0.9368824
2	0x3f9fac40	1.2474442
3	0x3f7eef15	0.9958356
4	0x3f693f81	0.91112524
5	0x3f9c26fd	1.2199398
6	0x3fc51366	1.5396545
7	0x3fa4a994	1.2864251
8	0x3f47abfb	0.77996796
9	0x3fadbc21	1.3573037
10	0x3f87d5ca	1.0612118
11	0x3f35a42c	0.7095363
12	0x3f9f922f	1.2466487
13	0x3fa202d4	1.2657113
14	0x3f899636	1.0748966
15	0x3f801c21	1.0008584

tower.bn_1d.bias f4 [16]
0	0xbf13ee13	-0.5778515
1	0xbdeae4b2	-0.114694014
2	0x3f5d4102	0.8642732
3	0xbf0f1ebc	-0.5590627
4	0x3ed705cd	0.41996613
5	0x3dcf13f3	0.10111227
6	0x3f4c3f94	0.7978451
7	0x3d3eb1bd	0.046556223
8	0x3e9b596b	0.30341658
9	0xbdfe128e	-0.12405883
10	0x3ec1db31	0.37862542
11	0x3c889746	0.016673695
12	0x3e880d5e	0.26572698
13	0x3e78d280	0.2429905
14	0x3dcdfbdf	0.10057806
15	0x3ebfcb44	0.37459767

tower.bn_1d.running_mean f4 [16]
0	0x3fee9328	1.8638659
1	0x4126ef55	10.433431
2	0x40cfd054	6.4941807
3	0x402cbea4	2.6991358
4	0x4134ab03	11.291751
5	0x403800dd	2.8750527
6	0x40f844ae	7.7583838
7	0x4093e2d2	4.621438
8	0x4115c624	9.360874
9	0x412ce1d0	10.80513
10	0x404b620b	3.177859
11	0x417bf181	15.746461
12	0x402b3c73	2.6755645
13	0x408cafac	4.3964443
14	0x40409cb0	3.0095634
15	0x40d56f52	6.669839

tower.bn_1d.running_var f4 [16]
0	0x4006db65	2.1071408
1	0x40343c29	2.816172
2	0x40237fac	2.5546675
3	0x40d718e9	6.721791
4	0x4085886c	4.172903
5	0x3fc83e7b	1.5644068
6	0x40837e18	4.1091423
7	0x408f088b	4.469793
8	0x405bb860	3.4331284
9	0x409c7fbe	4.8905935
10	0x4016a97a	2.354094
11	0x40a9b3f8	5.303219
12	0x401e92c3	2.4777076
13	0x400e9cb6	2.2283149
14	0x3fe41b93	1.7820915
15	0x40c2d058	6.0879326

tower.conv2d_2d.weight f4 [16, 16, 3, 3]
0	0xbcb6c5b8	-0.022311077
1	0x3e29301c	0.16522259
2	0x3e2147a3	0.15749983
3	0xbe03c5ad	-0.12868376
4	0x3c805c51	0.01566902
5	0x3d8dbd24	0.06920841
6	0x3c35da71	0.011099444
7	0x3ddf657f	0.10908031
8	0x3e02cb2d	0.12772818
9	0x3eb7f768	0.35930943
10	0x3ed4a71c	0.41533744
11	0x3e581bc0	0.21104336
12	0x3f0b0211	0.5430003
13	0x3e8941d6	0.2680804
14	0x3eab266e	0.33427757
15	0x3ef7d6d2	0.48406082
16	0x3e822a4e	0.254229
17	0x3e4a5749	0.19759859
18	0xbe26627a	-0.16248503
19	0xbe565fa6	-0.20934924
20	0xbdc252ae	-0.09488426
21	0xbe38c994	-0.18045646
22	0xbe7d9a51	-0.24765898
23	0xbe2d2cf4	-0.1691168
24	0xbd00857e	-0.031377308
25	0xbe081c48	-0.13292038
26	0xbd57d053	-0.052688908
27	0xbeca315c	-0.39490783
28	0xbf7b9f86	-0.9829029
29	0xbee6e30e	-0.45095104
30	0xbf0991de	-0.537382
31	0xbf9ed395	-1.240832
32	0xbf3c67fc	-0.7359617
33	0xbed7634a	-0.4206794
34	0xbf261f36	-0.64891374
35	0xbe403fd3	-0.18774347
36	0x3e743d41	0.23851492
37	0x3e220147	0.158208
38	0x3d14c0a5	0.036316533
39	0x3eaab9b2	0.333448
40	0x3e8a76a1	0.27043632
41	0x3da220e1	0.079164274
42	0x3ebd67c0	0.36993217
43	0x3e6befac	0.23040646
44	0x3ce3440c	0.027742408
45	0xbcac57d2	-0.02103797
46	0x3da5e68e	0.081006154
47	0x3e1e7436	0.15474018
48	0x3dfd62a8	0.12372333
49	0xbc3067aa	-0.010766903
50	0x3d822d1c	0.0635626
51	0x3df5da59	0.12004537
52	0x3ced9bd0	0.029004961
53	0x3d8dd6d9	0.069257446
54	0x3e10a14e	0.14124033
55	0x3dd55204	0.10416034
56	0x3d395ba9	0.04525343
57	0x3e0f4c58	0.13993967
58	0x3e21a959	0.15787257
59	0x3cf4a663	0.029864496
60	0xbe3f7fde	-0.18701121
61	0x3e0cfe96	0.13768992
62	0x3cc8bc73	0.024503922
63	0xbdd6ec6a	-0.10494311
64	0x3d8bbbeb	0.06822952
65	0xbd6f69aa	-0.05845038
66	0xbe4820eb	-0.19543807
67	0x3c60ac75	0.013712992
68	0xbd516a13	-0.05112655
69	0x3ba101d0	0.004913546
70	0xbd951fdd	-0.07281468
71	0xbd91bfdc	-0.071166724
72	0xbd9a206b	-0.075257145
73	0xbe379356	-0.17927298
74	0x3d920cde	0.071313605
75	0xbe2ad213	-0.166817
76	0xbed9b2f3	-0.4251934
77	0x3d9871b1	0.0744356
78	0x3e4dca29	0.20096649
79	0xbe2527a7	-0.16128407
80	0x3e19baff	0.1501274
81	0x3e755d2f	0.23961328
82	0x3eff9812	0.49920708
83	0x3e8274a2	0.2547961
84	0x3ecdf627	0.40226862
85	0x3f50e9a2	0.81606495
86	0x3eb672dd	0.3563451
87	0x3e7ad461	0.24495079
88	0x3f013964	0.50478196
89	0x3e0f70c6	0.14007863
90	0x3d381d6b	0.04494993
91	0x3c8718f1	0.016491385
92	0xbb5f2b36	-0.0034052855
93	0x3d00afc2	0.031417616
94	0xbe0924e7	-0.13392983
95	0xbc338db5	-0.010959079
96	0x3d836026	0.06414823
97	0x3de2ff12	0.11083807
98	0x3db5b52a	0.08872445
99	0xbf221ae8	-0.63322306
100	0xbf15ebd7	-0.5856299
101	0xbe2fbecc	-0.17162627
102	0xbfa0f737	-1.2575444
103	0xbee34210	-0.4438634
104	0xbe9267e4	-0.28594887
105	0xbf46eb98	-0.7770324
106	0xbe5a2e3b	-0.21306698
107	0xbe49a486	-0.19691667
108	0x3da1f11e	0.079073176
109	0x3dd80fa4	0.10549858
110	0x3d9ec88d	0.07753096
111	0x3dffa3c1	0.124824055
112	0xbbe01f4d	-0.006839669
113	0x3cbc5a32	0.022992227
114	0x3cca28db	0.024677685
115	0x3d44e6ec	0.048071787
116	0x3c28c5be	0.010301052
117	0x3e8fb48e	0.2806744
118	0x3e678232	0.2260826
119	0x3de1e5b9	0.11030144
120	0x3e9eddd6	0.31028622
121	0x3eabdc50	0.33566523
122	0x3e94f10c	0.29090154
123	0x3e564309	0.2092401
124	0x3e963467	0.29336855
125	0x3dd5d5f0	0.10441196
126	0xbc0be6fc	-0.008538958
127	0xbd0f3462	-0.034962066
128	0x3da3a3eb	0.07990249
129	0xbdffea6c	-0.12495884
130	0xbd8825d1	-0.06647838
131	0x3e130f84	0.14361387
132	0xbd7c9b1b	-0.061671358
133	0x3d14d0d3	0.036331963
134	0x3daba509	0.08381087
135	0x3d14fef6	0.036375962
136	0xbe3b69f0	-0.1830213
137	0xbe84f241	-0.25966075
138	0x3dac8050	0.08422911
139	0x3cf936bd	0.030421609
140	0xbee3997a	-0.4445303
141	0xbea08483	-0.31351098
142	0xbeb3d4cb	-0.35123286
143	0xbe7a8dfb	-0.24468224
144	0xbe2a8afb	-0.1665458
145	0xbeb3e511	-0.351357
146	0xbdf16899	-0.117875285
147	0xbee3f052	-0.44519287
148	0xbe38c53b	-0.18043987
149	0xbe3e3fe7	-0.18579064
150	0xbedfca55	-0.43709055
151	0xbe9fa7d6	-0.31182736
152	0xbb46ec7d	-0.003035336
153	0xbe42aa32	-0.19010237
154	0xbc1e1683	-0.009648922
155	0x3daef7a9	0.08543331
156	0xbed22464	-0.4104339
157	0xbe84fdb0	-0.25974798
158	0xbd954839	-0.07289166
159	0xbf449827	-0.76794666
160	0xbe658da9	-0.2241732
161	0xbd0d59a0	-0.0345093
162	0x3d1d56b9	0.038412783
163	0xbde2ad67	-0.1106823
164	0x3d55181c	0.052024946
165	0x3d74d59b	0.059774023
166	0x3d393a9d	0.045221914
167	0x3e56b44d	0.20967217
168	0xbe0f7fa8	-0.1401354
169	0xbd8b8c13	-0.068138264
170	0xbdf1bf07	-0.11804014
171	0xbeb3f6a5	-0.35149112
172	0x3ebcdd32	0.3688751
173	0xbeae5b57	-0.34054062
174	0xbe9fe82c	-0.3123182
175	0xbe434d71	-0.1907251
176	0x3d249944	0.040185228
177	0xbe752831	-0.23941113
178	0xbd61c062	-0.05511511
179	0xbe3ffaad	-0.18747969
180	0xbeb85328	-0.36000943
181	0xbe652c44	-0.22380167
182	0x3eef3acd	0.4672455
183	0xbebba68d	-0.36650506
184	0xbf0a5b1c	-0.5404527
185	0x3e87986f	0.26483485
186	0xbddc6fa0	-0.10763478
187	0xbe9df4c2	-0.30850798
188	0x3ea53386	0.32265872
189	0x3dc1e104	0.094667464
190	0x3dc1827c	0.09448716
191	0x3d4ed03f	0.050491568
192	0xbdae2af3	-0.08504286
193	0x3f0aca79	0.542152
194	0x3e129579	0.14314832
195	0x3d594eb6	0.05305358
196	0xbdf4845f	-0.1193931
197	0x3dce5be8	0.100761235
198	0xbe633da0	-0.22191477
199	0x3d5de3c4	0.054172292
200	0xbb7b54a9	-0.0038350022
201	0xbe30fed7	-0.17284714
202	0x3e00b43f	0.12568758
203	0x3e15219f	0.14563607
204	0xbe60404d	-0.21899529
205	0x3d82f987	0.0639525
206	0x3e70fd89	0.23534216
207	0xbe55739e	-0.20844886
208	0xbec95521	-0.3932276
209	0x3ee5f73d	0.4491519
210	0xbbc34271	-0.005958848
211	0xbeee7085	-0.4657022
212	0x3d6facde	0.05851447
213	0xbdac5f9c	-0.084166735
214	0x3e08eda4	0.13371903
215	0x3e40e386	0.18836793
216	0x3e3cf73f	0.18453692
217	0x3e7b8585	0.24562652
218	0xbe01e8c2	-0.12686446
219	0xbd7e171d	-0.06203376
220	0x3e5d6c8e	0.21623442
221	0xbd987622	-0.07444407
222	0xbebb6a63	-0.36604604
223	0x3f178745	0.5919078
224	0x3e17ca48	0.14823258
225	0x3ea88608	0.32914758
226	0xbea305bd	-0.31840315
227	0x3e6b9708	0.23006833
228	0xbdcd5b59	-0.10027189
229	0xbe4844c7	-0.19557486
230	0x3e928447	0.28616545
231	0xbd20a4f4	-0.03921981
232	0xbe9b0d40	-0.30283546
233	0x3e8b021b	0.27150044
234	0xbe4a5854	-0.19760257
235	0x3dc185a4	0.09449318
236	0xbd5eeb00	-0.054423332
237	0xbebae09e	-0.36499494
238	0x3e58931b	0.21149866
239	0x3e52c34b	0.20582311
240	0xbe29ea93	-0.16593389
241	0x3a9c4b23	0.0011924248
242	0x3e583369	0.21113361
243	0xbe898af1	-0.26863816
244	0xbd980c85	-0.07424263
245	0x3d91e756	0.07124202
246	0x3de30e71	0.11086739
247	0xbf2479b8	-0.6424823
248	0x3ecfe82b	0.40606818
249	0x3f215806	0.6302494
250	0x3ecea44a	0.40359718
251	0x3f1971bc	0.5993917
252	0x3cb848d0	0.022495657
253	0x3d1c1009	0.03810123
254	0x3d86cfd1	0.065826066
255	0xbed5ccc6	-0.41757792

tower.conv2d_2d.bias f4 [16]
0	0x400e5af3	2.224301
1	0x4013d43e	2.3098292
2	0x3f2f7779	0.68541676
3	0x3e514da6	0.20439777
4	0xbec4417c	-0.3833121
5	0x402270e7	2.538141
6	0x3e429f65	0.19006117
7	0x409342f8	4.601925
8	0x3e58d718	0.21175802
9	0x3f007af8	0.50187635
10	0x3eacf895	0.33783403
11	0x3f847b89	1.03502
12	0x3e9f9a43	0.3117238
13	0xbf1d1d86	-0.61373174
14	0xbe7a850d	-0.24464817
15	0x3fdfbadc	1.74789

tower.bn_2d.weight f4 [16]
0	0x3f32ba6c	0.6981571
1	0x3ea31a4f	0.3185601
2	0x3ea71fd8	0.32641482
3	0x3f3765ce	0.71639717
4	0x3ea65215	0.324845
5	0x3ebaed3c	0.3650912
6	0x3f8bfd14	1.0936608
7	0x3f3482cf	0.705121
8	0x3e8ad6e3	0.2711707
9	0x3ec3175a	0.38103753
10	0x3ee4ee6e	0.44713157
11	0x3eb2703e	0.3485126
12	0x3ef75633	0.48307952
13	0x3e91f9e1	0.28510955
14	0x3e8c3efe	0.2739181
15	0x3f12c9c2	0.5733911

tower.bn_2d.bias f4 [16]
0	0x3f0a48b9	0.54017216
1	0x3e9f3176	0.31092423
2	0xbeaba86b	-0.3352693
3	0x3c3dc6d7	0.011583052
4	0x3e36a774	0.17837316
5	0x3da847da	0.082168296
6	0x3f0ed252	0.55789673
7	0x3e0ec914	0.13943893
8	0xbef84d94	-0.48496687
9	0x3e69bcf9	0.22825994
10	0x3d1d1dd2	0.038358517
11	0x3e8bdc08	0.27316308
12	0xbd18f79c	-0.037345514
13	0x3cd5448d	0.026033664
14	0x3e462a46	0.19352064
15	0x3d85fc5a	0.06542273

tower.bn_2d.running_mean f4 [16]
0	0x40be685a	5.950238
1	0x408f908d	4.4863954
2	0x4002028f	2.0314062
3	0x4067e93a	3.62361
4	0x3eef6e47	0.46763822
5	0x4067ffcb	3.6249874
6	0x411431f0	9.262192
7	0x41181bed	9.506818
8	0x3fccdbab	1.6004537
9	0x40518caa	3.2742105
10	0x40988ceb	4.767202
11	0x4061260a	3.5179467
12	0x40c976cc	6.2957516
13	0x3edb212b	0.42798743
14	0x402311ef	2.5479696
15	0x4083e967	4.1222415

tower.bn_2d.running_var f4 [16]
0	0x413bd216	11.7387905
1	0x40fb9098	7.8614006
2	0x41319b43	11.100406
3	0x4171eeee	15.120832
4	0x40cac030	6.3359604
5	0x40d25b2e	6.5736303
6	0x421da5d0	39.411926
7	0x41914d74	18.162819
8	0x40afd834	5.495142
9	0x40d2572d	6.5731416
10	0x41325449	11.145577
11	0x40eccfda	7.4003725
12	0x41851341	16.634401
13	0x4031db5b	2.7790134
14	0x41132de2	9.198702
15	0x40c29e49	6.081822

tower.conv2d_3d.weight f4 [16, 16, 3, 3]
0	0xbe0434ab	-0.12910716
1	0x3db04a3e	0.086079106
2	0x3be40672	0.006958776
3	0x3e1e4f31	0.15459897
4	0x3dd62f9d	0.104583
5	0xbba64318	-0.005073916
6	0xbe8a30fc	-0.26990497
7	0x3d128f97	0.03578147
8	0xbd8cd363	-0.06876256
9	0x3e3fea7c	0.18741792
10	0xbe02e857	-0.12783943
11	0xbc18a320	-0.009316236
12	0x3d55632a	0.052096523
13	0xbdc28863	-0.0949867
14	0xbe1ad6fe	-0.15121076
15	0x3dc19641	0.09452487
16	0x3dd95d96	0.10613553
17	0x3e4e69df	0.20157574
18	0xbdb94ae5	-0.09047488
19	0xbecec634	-0.40385592
20	0xbe0863dc	-0.13319343
21	0xbf18c303	-0.59672564
22	0xbf06a1cd	-0.5259064
23	0xbf1d19e2	-0.6136762
24	0xbe70941b	-0.23493998
25	0xbf089880	-0.53357697
26	0xbe88f9db	-0.26753125
27	0x3d24d7cb	0.04024486
28	0xbe74c998	-0.23905027
29	0xbe11d69e	-0.14242026
30	0x3e3e47dc	0.185821
31	0xbea5e8e7	-0.32404253
32	0x3cbce9ae	0.023060646
33	0x3e981b67	0.29708406
34	0x3dc2b66f	0.09507453
35	0x3d378fda	0.044814922
36	0x3f62ec9f	0.88642305
37	0x3e6ec951	0.23318984
38	0x3e7a8525	0.24464853
39	0x3e6e1819	0.2325138
40	0xbf424ab9	-0.7589527
41	0xbf40d5e5	-0.7532638
42	0x3f0aed5f	0.5426845
43	0x3d234ed8	0.039870113
44	0xbe2f39c0	-0.17111874
45	0x3e013fad	0.12621947
46	0xbc2c8d48	-0.010531731
47	0x3e2c86ee	0.16848347
48	0x3e1e041f	0.1543126
49	0x3da40c5b	0.08010169
50	0xbd8afbbe	-0.06786297
51	0x3e5c18e9	0.21493877
52	0x3de2df45	0.110777415
53	0x3c9d2234	0.019181348
54	0xbaf7d6da	-0.0018908635
55	0xbe139d32	-0.14415434
56	0xbd99aacc	-0.0750328
57	0xbe588540	-0.21144581
58	0x3d83ef6f	0.06442153
59	0x3e52cc4a	0.20585743
60	0xbe16aa68	-0.14713442
61	0xbd151d6f	-0.036405023
62	0xbde0c604	-0.109752685
63	0x3e5a5780	0.21322441
64	0x3cd3fae7	0.025876475
65	0x3e48a39e	0.19593665
66	0x3dce53f5	0.10074607
67	0xbde65684	-0.1124697
68	0xbc422f37	-0.011852077
69	0xbd05d189	-0.03267053
70	0xbcbfce41	-0.02341378
71	0xbd4ababd	-0.049494494
72	0x3ee3a323	0.444604
73	0xbe290fa2	-0.1650987
74	0xbd4d9581	-0.050191406
75	0xbe250388	-0.16114628
76	0xbefdf058	-0.4959743
77	0xbf31e476	-0.6948923
78	0x3d4f93f4	0.05067821
79	0xbef40848	-0.47662568
80	0xbe8d579e	-0.2760591
81	0x3bfbfac5	0.007689806
82	0xbecfd2b1	-0.40590432
83	0xbe7ddc42	-0.24791053
84	0xbeb21257	-0.34779617
85	0xbf0795df	-0.5296306
86	0xbe465c16	-0.19371065
87	0x3d1a617a	0.037690617
88	0xbe520e6a	-0.20513311
89	0xbdfae87a	-0.12251373
90	0xbd1966b3	-0.037451457
91	0xbe90936f	-0.28237483
92	0xbe788007	-0.24267589
93	0xbcb69990	-0.022290021
94	0xbe90ea0d	-0.28303567
95	0xbe429d75	-0.19005378
96	0x3dedcdd3	0.116115235
97	0xbde670ad	-0.1125196
98	0xbe40c72b	-0.18825977
99	0x3cafb0e6	0.021446656
100	0xbe8f2800	-0.27960205
101	0x3cc41266	0.023934554
102	0x3dacc8f7	0.084367685
103	0xbd3d4d08	-0.04621604
104	0x3d831e52	0.064022675
105	0x3f15cb02	0.5851289
106	0x3eb5a665	0.3547851
107	0xbe4a996d	-0.1978509
108	0xbd36351a	-0.044484235
109	0x3b1b8b73	0.0023734241
110	0xbc00807f	-0.007843136
111	0xbe36ba95	-0.17844613
112	0xbe6ac6c0	-0.2292738
113	0xbdba3b04	-0.090932876
114	0x3d31064b	0.043218892
115	0xbceba8f9	-0.028767096
116	0xbd74b284	-0.05974056
117	0x3f352b0c	0.7076881
118	0x3e0b96e0	0.13631773
119	0xbf0570eb	-0.52125424
120	0x3f0f6c42	0.56024563
121	0xbf3d36ca	-0.73911726
122	0xbf19e958	-0.6012168
123	0x3ef8db25	0.48604694
124	0x3d3578b9	0.044304583
125	0xbf12de47	-0.5737042
126	0x3e759152	0.23981217
127	0x3d26dfdd	0.040740836
128	0x3e459f9e	0.1929917
129	0xbca1727e	-0.019707914
130	0xbf0b2807	-0.5435795
131	0xbcc1b6b4	-0.02364669
132	0xbd8fb5f8	-0.0701713
133	0xbc9b1cc6	-0.018934619
134	0xbd49b8f5	-0.049248654
135	0xbba53894	-0.005042145
136	0xbe6a02cb	-0.22852628
137	0x3c5da507	0.013528115
138	0x3e33ddfa	0.17565146
139	0x3c2b3292	0.010449069
140	0x3ea09ce5	0.313697
141	0x3d9b411d	0.07580779
142	0x3ea2a9fa	0.31770307
143	0xbde0038a	-0.10938175
144	0x3e276b10	0.16349435
145	0x3ecb755b	0.39737973
146	0x3ebee768	0.37285924
147	0x3e48265e	0.19545886
148	0x3e8ac68d	0.27104607
149	0x3eee6776	0.4656331
150	0x3debd93f	0.11516046
151	0x3dd59225	0.104282655
152	0x3ee21e53	0.4416376
153	0x3dfc49ab	0.123187385
154	0xbdcfc776	-0.10145466
155	0x3e897fe2	0.2685538
156	0xbd7bbb07	-0.06145766
157	0xbe18de77	-0.14928614
158	0x3eb4583a	0.35223562
159	0x3d416cc1	0.047222856
160	0x3d658f83	0.056045067
161	0x3ea06eaf	0.31334445
162	0x3c726251	0.014793948
163	0xbe6116be	-0.21981332
164	0xbd6a3c84	-0.05718662
165	0xbe199805	-0.14999397
166	0xbd60019b	-0.05468903
167	0xbe5a4446	-0.21315107
168	0xbd9bdab4	-0.07610074
169	0xbe89e221	-0.26930335
170	0xbd94c7bc	-0.07264659
171	0x3ea0a784	0.31377804
172	0x3db7af51	0.08968986
173	0xbb93edd6	-0.0045144362
174	0xbe733c73	-0.23753528
175	0xbea385c9	-0.31938007
176	0xbdd870a7	-0.10568362
177	0x3ce3552b	0.027750572
178	0xbd0629dd	-0.032754768
179	0x3e022d18	0.12712514
180	0xbe8aee1b	-0.27134785
181	0xbf3fb081	-0.748787
182	0x3f1fb3d1	0.62383753
183	0xbf45506f	-0.77075857
184	0xbfc47718	-1.5348845
185	0xbe0134a0	-0.12617731
186	0x3d18599a	0.037194826
187	0xbf927cb2	-1.1444304
188	0xbe202753	-0.15640001
189	0x3e32d687	0.17464648
190	0x3dc314e8	0.09525472
191	0x3de559a4	0.11198738
192	0xbd64bf55	-0.05584653
193	0x3e1697a9	0.14706291
194	0xbe44b740	-0.1921053
195	0x3cf53bc1	0.02993572
196	0xbe51fcd0	-0.20506597
197	0xbd0bcb22	-0.03412927
198	0xbdadbe97	-0.08483618
199	0xbd48334d	-0.04887705
200	0x3f067955	0.5252889
201	0xbe40b3b7	-0.18818556
202	0xbe1c7e96	-0.15282664
203	0x3ecbb080	0.39783096
204	0xbd2e0663	-0.04248656
205	0xbd4b4ec3	-0.04963566
206	0x3ed12815	0.40850893
207	0xbea376c8	-0.3192656
208	0x3dbb62e8	0.09149724
209	0x3ecee027	0.4040539
210	0xbda1f400	-0.079078674
211	0xbdef4931	-0.11683882
212	0x3ebb2520	0.36551762
213	0x3c151df1	0.009101377
214	0x3df1dc77	0.118096285
215	0x3e366a61	0.17814018
216	0xbdf62edf	-0.12020659
217	0xbd923ff9	-0.07141108
218	0x3e4fb855	0.20285161
219	0x3dd36f42	0.10323955
220	0xbf23b690	-0.63950443
221	0xbe43f6c0	-0.19137096
222	0xbebc2c72	-0.3675266
223	0xbf088b82	-0.5333787
224	0xbe18a663	-0.14907221
225	0x3dd35832	0.10319556
226	0xbdd55d9c	-0.10418245
227	0x3da7fe21	0.08202768
228	0x3d0658cd	0.03279953
229	0xbdda6c5a	-0.10665198
230	0xbdda1e15	-0.10650269
231	0x3e8ce7a9	0.27520493
232	0x3dc154bd	0.09439991
233	0xbeb72cae	-0.35776275
234	0xbe18bfdc	-0.14916939
235	0xbc9e093a	-0.019291509
236	0xbed9cea3	-0.42540464
237	0xbe32df73	-0.17468052
238	0xbe4b741a	-0.19868508
239	0xbbd9e380	-0.0066494346
240	0xbe79cff3	-0.24395733
241	0xbd877032	-0.066131964
242	0xbe76a40d	-0.24086018
243	0x3da79503	0.081827186
244	0x3e42f5c0	0.19039059
245	0x3e67cd1d	0.22636838
246	0x3e3cb615	0.18428834
247	0x3dbf7632	0.09348716
248	0x3e104a6f	0.14090894
249	0x3ebe5530	0.37174368
250	0xbdcf8042	-0.10131885
251	0x3e83e8f4	0.25763667
252	0x3c65415a	0.013992632
253	0xbf058c84	-0.52167535
254	0xbcf34353	-0.029695189
255	0xbeb18c9c	-0.3467759

tower.conv2d_3d.bias f4 [16]
0	0x3f85da16	1.045718
1	0x3f960af9	1.1722099
2	0x406e996c	3.7281141
3	0x403dae03	2.9637458
4	0x40a7fb3f	5.2494197
5	0x3eae9bd6	0.34103268
6	0x3ea5f00d	0.32409707
7	0x3ded267e	0.115796074
8	0xbef8643b	-0.4851397
9	0xbed3b234	-0.41346896
10	0x3f78f08b	0.9724204
11	0x40471592	3.1106915
12	0x3e79e2dd	0.24402948
13	0x3f1901cb	0.5976836
14	0x3f65953a	0.89680827
15	0x3f35a1d4	0.70950055

tower.bn_3d.weight f4 [16]
0	0x3e8505d5	0.25981012
1	0x3eba0cee	0.3633799
2	0x3eb30e6a	0.34971935
3	0x3ed5e538	0.41776443
4	0x3eec1aac	0.461141
5	0x3eba2247	0.36354277
6	0x3e983058	0.29724383
7	0x3eab4d68	0.33457494
8	0x3f2586a8	0.64658594
9	0x3e8edb01	0.27901462
10	0x3e66fdc0	0.22557735
11	0x3ea5965a	0.32341272
12	0x3eb6d5ea	0.35710078
13	0x3e9a2067	0.30102846
14	0x3eab7869	0.33490303
15	0x3ea44639	0.32084826

tower.bn_3d.bias f4 [16]
0	0x3c53a98c	0.012918841
1	0x3d6dd764	0.05806674
2	0x3da28396	0.07935254
3	0xbc8b8abc	-0.017033927
4	0x3f16c7d4	0.58898664
5	0x3e0f406c	0.13989419
6	0x3b76f63b	0.0037683386
7	0x3ea5d148	0.3238623
8	0x3eca8384	0.39553463
9	0x3d49fd85	0.04931404
10	0x3e30b7aa	0.17257562
11	0x3ec55407	0.3854067
12	0x3eb1e92e	0.34748214
13	0x3d8aa605	0.06769947
14	0x3de4df40	0.11175394
15	0xbc86d77e	-0.016460177

tower.bn_3d.running_mean f4 [16]
0	0x402dadd2	2.7137341
1	0x4086d44c	4.213415
2	0x40d8fede	6.7811117
3	0x40c292a8	6.0804024
4	0x4104955b	8.286464
5	0x3f29d4df	0.6634044
6	0x3f853518	1.0406828
7	0x402088bc	2.5083456
8	0x3f0a868a	0.5411154
9	0x3f47cce8	0.7804704
10	0x3f855e5f	1.0419425
11	0x40ae85fd	5.453856
12	0x3f971e99	1.1806213
13	0x3f56281e	0.83654964
14	0x3f7a4a1c	0.9776933
15	0x40335cbf	2.8025358

tower.bn_3d.running_var f4 [16]
0	0x3fae6ef9	1.3627616
1	0x4022df4d	2.5448792
2	0x40427fd1	3.0390513
3	0x40ab5aef	5.3548503
4	0x40515005	3.270509
5	0x3fd7d0b3	1.6860565
6	0x3fb495e2	1.4108241
7	0x40207aec	2.5075026
8	0x4043a10c	3.0567045
9	0x3f8ad375	1.0845782
10	0x3fe451d0	1.7837467
11	0x404f0725	3.234811
12	0x3fdf28bd	1.7434307
13	0x3f9fa2e2	1.2471583
14	0x3fcd370c	1.6032424
15	0x405bd34d	3.4347718

tower.conv2d_4d.weight f4 [16, 16, 3, 3]
0	0xbc3e9d6b	-0.011634211
1	0x3d8fdd42	0.070246235
2	0x3e2c1af9	0.16807164
3	0xbd08647b	-0.03329895
4	0x3eaf1249	0.34193638
5	0x3c6ec88f	0.014574184
6	0x3dfe4634	0.12415734
7	0x3d2a9dd8	0.041654438
8	0xbdf7fa0f	-0.12108242
9	0x3db7ce4d	0.089748956
10	0xbae36515	-0.001734885
11	0x3e830d9b	0.25596318
12	0x3dcd103b	0.10012861
13	0x3e0e5b2a	0.13901964
14	0xbea893a0	-0.3292513
15	0x3d894194	0.06701961
16	0xbd660f30	-0.056166828
17	0xbed0e2c9	-0.40798023
18	0xbd8068c7	-0.06269985
19	0x3ed4a446	0.4153158
20	0x3e701991	0.23447253
21	0x3f0fc525	0.56160194
22	0x3e9e2437	0.30887005
23	0xbe927c01	-0.28610232
24	0x3de3a757	0.11115902
25	0x3ec6ef2d	0.38854352
26	0xbf1e27df	-0.6177959
27	0x3cf8cdd3	0.030371582
28	0x3efece20	0.49766636
29	0x3e99d711	0.30046895
30	0x3d8e7ea6	0.0695775
31	0x3e8e684c	0.27813947
32	0xbe98e773	-0.29864082
33	0xbdaadd95	-0.08343045
34	0x3e92da69	0.2868226
35	0xbef31779	-0.47478846
36	0x3e20a0e4	0.15686375
37	0x3ef48cfd	0.47763816
38	0xbccb2a3f	-0.024800418
39	0x3f05bfcd	0.5224579
40	0x3f073625	0.52816993
41	0xbe7b6447	-0.24549972
42	0x3edbda9d	0.42940226
43	0x3ed6a791	0.41924718
44	0xbf3ab1cb	-0.7292754
45	0xbe14f6b9	-0.14547242
46	0xbe3b363a	-0.18282405
47	0xbc679c5b	-0.014136399
48	0xbdccc802	-0.09999086
49	0x3e56cd78	0.20976818
50	0x3daa955e	0.08329271
51	0x3caba8a0	0.02095443
52	0x3e47fc26	0.19529781
53	0x3caebd22	0.02133042
54	0x3e7f46d3	0.24929361
55	0xbe8d0fd2	-0.27551132
56	0xbe8336d2	-0.25627762
57	0xbd9d8c08	-0.076927245
58	0xbe1d0513	-0.15333967
59	0x3e9a35de	0.30119222
60	0xbe9871a0	-0.2977419
61	0xbe84f183	-0.2596551
62	0x3edc1300	0.42983246
63	0xbefa6d58	-0.48911548
64	0x3e66900f	0.22515891
65	0x3e8da614	0.2766577
66	0xbdcc6bf3	-0.09981527
67	0xbe64e5b4	-0.2235325
68	0xbe758f8b	-0.23980539
69	0x3d6a19e8	0.057153612
70	0x3e17c114	0.14819747
71	0xbf0acab5	-0.54215556
72	0x3e835299	0.25648955
73	0x3e3eb293	0.18622808
74	0xbc365258	-0.011128031
75	0x3ead7045	0.33874717
76	0x3e3d1723	0.18465857
77	0xbd926ba1	-0.07149435
78	0x3ebb405a	0.36572534
79	0x3e9054db	0.2818974
80	0xbe3c383f	-0.18380831
81	0x3d92717d	0.071505524
82	0xbcfeee71	-0.031119557
83	0xbe2a78e8	-0.16647685
84	0xbf0bfc83	-0.5468218
85	0xbeeb4f24	-0.45958817
86	0x3ccbe2e9	0.024888473
87	0xbe937072	-0.28796726
88	0x3bc2189b	0.0059233434
89	0x3e75a06e	0.2398698
90	0x3d1fcb9e	0.039012544
91	0xbe50b019	-0.20379676
92	0xbe95297c	-0.29133213
93	0xbe30f4c6	-0.17280874
94	0x3ec896bc	0.391775
95	0x3efaab20	0.48958683
96	0x3e7bd4cd	0.24592896
97	0x3e05dd40	0.13072681
98	0x3e5a9f6c	0.21349877
99	0x3e09fb28	0.13474715
100	0x3df0a309	0.117498465
101	0x3c953e24	0.018218108
102	0x3e5e5240	0.21711063
103	0xbdecdd05	-0.11565594
104	0x3dc9e6d3	0.09858479
105	0x3e7976d4	0.24361736
106	0x3e164a44	0.14676768
107	0xbe7f0a56	-0.24906287
108	0x3d9f3fe7	0.0777586
109	0xbe97373d	-0.2953433
110	0xbc06ee8e	-0.008235587
111	0xbc8c9a8b	-0.017163536
112	0xbdcb1a14	-0.099170834
113	0x3e5adc00	0.21372986
114	0xbdc4a3de	-0.09601568
115	0xbdcfa2a6	-0.101384446
116	0x3f16790c	0.5877845
117	0xbe019d26	-0.12657604
118	0xbef8086c	-0.48443925
119	0xbe4275a7	-0.18990193
120	0xbebc90a4	-0.36829102
121	0xbeeef9a9	-0.4667485
122	0x3e98edf1	0.29869035
123	0xbea03a1e	-0.3129434
124	0xbeb98628	-0.36235166
125	0x3ef936d5	0.48674646
126	0xbdbf78b5	-0.09349195
127	0xbf111eb6	-0.56687486
128	0x3d675cc6	0.05648496
129	0xbf154d54	-0.5832112
130	0xbf5329e8	-0.8248582
131	0x3f1b6f87	0.6071705
132	0xbe365e4e	-0.17809412
133	0xbd967667	-0.07346802
134	0x3f20e63a	0.628513
135	0xbecd60d3	-0.40112934
136	0x3c13e527	0.009026802
137	0x3d577212	0.05259902
138	0xbd38ff37	-0.045165267
139	0xbde7c1bc	-0.11316249
140	0xbe299ace	-0.1656296
141	0xbc2f36d6	-0.010694226
142	0x3ec63e20	0.38719273
143	0xbe61795f	-0.22018956
144	0x3c877939	0.016537296
145	0xbbe66777	-0.007031377
146	0x3e263404	0.1623078
147	0xbeeb0ef7	-0.45909855
148	0x3e4378a5	0.19088991
149	0x3e87bc56	0.26510876
150	0xbc9af368	-0.018914893
151	0xbe163e23	-0.14672141
152	0xbc443108	-0.011974581
153	0xbe8a269b	-0.2698258
154	0xbe373da8	-0.17894614
155	0x3e1f4117	0.15552174
156	0xbd767e83	-0.060179245
157	0xbeee847d	-0.46585456
158	0x3eb23c64	0.348117
159	0x3e2d1697	0.16903149
160	0x3d94e738	0.07270664
161	0x3e2abb93	0.16673116
162	0x3ec24a1c	0.37947166
163	0x3d6f5f13	0.05844028
164	0x3ed66af5	0.41878477
165	0xbd9086b9	-0.07056946
166	0xbd9e646c	-0.07733998
167	0xbd2024c5	-0.039097566
168	0xbe0b762b	-0.13619296
169	0xbdd2ee62	-0.10299374
170	0xbd433a3e	-0.047662966
171	0xbd163a34	-0.0366766
172	0x3e90cbbf	0.28280446
173	0x3ea1c676	0.31596726
174	0x3e0b72f3	0.13618068
175	0x3e49c4b4	0.19703943
176	0x3eafe70c	0.34355962
177	0x3d514a81	0.051096443
178	0xbeaba950	-0.33527613
179	0xbe477223	-0.19477133
180	0x3c8d64ad	0.01725992
181	0xbd8a880f	-0.06764232
182	0x3e656ff0	0.22405982
183	0x3d144008	0.036193877
184	0xbe4ab56b	-0.19795768
185	0xbe0b1535	-0.13582309
186	0x3c221973	0.009893763
187	0xbe461b5a	-0.19346371
188	0xbe379bca	-0.17930523
189	0xbe31f734	-0.17379457
190	0x3efb25a5	0.49052158
191	0xbe96513d	-0.29358855
192	0x3d44df06	0.048064254
193	0x3f0aa92a	0.54164374
194	0x3ea536b8	0.3226831
195	0xbebaffb7	-0.3652322
196	0xbd291c57	-0.041286793
197	0x3e8907bd	0.26763716
198	0x3e61e9ff	0.22061919
199	0xbd89ee35	-0.067348875
200	0xbe89b287	-0.26894018
201	0x3ed8c0e3	0.4233466
202	0x3e9b0b92	0.30282265
203	0xbe74a137	-0.23889624
204	0x3ce30313	0.027711427
205	0x3e9cf98e	0.30659145
206	0xbdc92288	-0.098210394
207	0xbdea9723	-0.11454608
208	0x3d80fe0c	0.062984556
209	0x3d5fd92c	0.05465047
210	0x3dd94fd4	0.10610929
211	0x3f386562	0.720297
212	0x3e1d0dde	0.15337321
213	0x3e8549a4	0.26032746
214	0xbf03fc91	-0.5155726
215	0xbd2b1d2e	-0.041775875
216	0x3ee72157	0.45142624
217	0x3f2dc311	0.6787577
218	0xbdb3c425	-0.08777646
219	0x3edd89b1	0.43269113
220	0x3fce2187	1.6103982
221	0xbe0ce646	-0.13759717
222	0xbed7a8ca	-0.42120963
223	0x3c26a4ba	0.01017111
224	0xbea99215	-0.33119264
225	0xbd760165	-0.060059924
226	0xbe79f87e	-0.24411198
227	0xbe8e7a92	-0.2782789
228	0x3da6f271	0.08151711
229	0x3ef70f0f	0.48253676
230	0xbdd44342	-0.10364391
231	0x3e68f413	0.22749357
232	0x3ee8cdbc	0.45469463
233	0x3e255f2c	0.16149586
234	0x3f32d9d9	0.6986366
235	0xbca98a37	-0.020695789
236	0xbea627ce	-0.32452244
237	0x3ef06e0b	0.46958956
238	0x3ec11ea2	0.37718683
239	0xbedcb66a	-0.4310792
240	0x3cded8cd	0.027202988
241	0x3e9e8ba5	0.30965915
242	0x3e0bce62	0.13652948
243	0xbd0505e6	-0.03247633
244	0xbd568fdb	-0.052383285
245	0x3e844f81	0.25841907
246	0x3e7e1d8a	0.24815956
247	0x3e0e966f	0.13924573
248	0xbc425199	-0.011860275
249	0x3d5f948b	0.05458502
250	0xbdcec2dd	-0.10095761
251	0x3e50bff2	0.20385721
252	0xbdc898de	-0.09794782
253	0xbce0ac64	-0.027425952
254	0xbe2bd84b	-0.16781728
255	0x3efcc4f7	0.49369022

tower.conv2d_4d.bias f4 [16]
0	0x3fbc82d2	1.4727423
1	0x3f25b291	0.64725596
2	0x3ed91d9f	0.42405412
3	0x3f6dfad2	0.92960846
4	0x3f46b963	0.7762663
5	0xbcc45cf3	-0.023970103
6	0xbdaf81d2	-0.08569683
7	0x3d0f3ebb	0.034971934
8	0x3f1620d5	0.5864385
9	0x3ecca506	0.39969653
10	0x3e8119c4	0.2521497
11	0x3fbc64fa	1.4718316
12	0x3ece64f9	0.4031141
13	0x4014c6ef	2.324642
14	0x3ef198a9	0.47186783
15	0x3ed79ed3	0.4211336

tower.bn_4d.weight f4 [16]
0	0x3e940520	0.2891016
1	0x3edd47a2	0.43218714
2	0x3e09ddfe	0.1346359
3	0x3e3adb31	0.18247677
4	0x3e723f2f	0.23656915
5	0x3e50f4d8	0.204059
6	0x3e2b4ada	0.16727772
7	0x3e575626	0.21028957
8	0x3e4920a2	0.19641355
9	0x3e55eb3c	0.20890516
10	0x3e803d41	0.25046733
11	0x3e808d42	0.2510777
12	0x3e6402d4	0.22266704
13	0x3e76b88f	0.24093841
14	0x3e9bfcb7	0.30466244
15	0x3ea1db7f	0.31612775

tower.bn_4d.bias f4 [16]
0	0xbc248bbf	-0.010043084
1	0xbdeade32	-0.11468162
2	0x3e0f60c9	0.14001764
3	0xbdf14320	-0.11780381
4	0xbe01418b	-0.12622659
5	0xbe7fdeca	-0.24987331
6	0xbb33ec9e	-0.0027454267
7	0xbecde803	-0.40216073
8	0x3e019d82	0.1265774
9	0x3df1f85b	0.11814948
10	0xbdf8e3cc	-0.12152824
11	0xbc4e56f5	-0.012593974
12	0x3e357961	0.17722084
13	0xbe78f820	-0.24313402
14	0xbe6c16a2	-0.23055509
15	0xbf5a354f	-0.8523759

tower.bn_4d.running_mean f4 [16]
0	0x4022bc96	2.5427604
1	0x4041fcc7	3.0310533
2	0x400d180c	2.2045927
3	0x3fec17f1	1.8444806
4	0x401f2787	2.4867876
5	0x3fc2a972	1.5207961
6	0x3f8876f2	1.0661299
7	0x3fa96646	1.3234336
8	0x3feb0440	1.8360672
9	0x3fd33106	1.6499336
10	0x3fc0e224	1.5069013
11	0x404e146e	3.219997
12	0x3fd66316	1.6748989
13	0x4009506d	2.1455338
14	0x3f97befd	1.185516
15	0x3f444cb9	0.7667957

tower.bn_4d.running_var f4 [16]
0	0x402dc6b2	2.7152524
1	0x40cc422a	6.3830767
2	0x3fc50d48	1.5394678
3	0x3fcfbcd5	1.6229502
4	0x40021cf0	2.0330162
5	0x402f6a9a	2.7408814
6	0x3f521a44	0.8207133
7	0x400b8272	2.1798368
8	0x3fe2c454	1.7716165
9	0x3fef194f	1.8679599
10	0x3fd34a90	1.650713
11	0x403e8138	2.976637
12	0x4009722b	2.1475933
13	0x3f931ce3	1.149319
14	0x3fae0e14	1.3598046
15	0x3fed3007	1.8530282
